…
|  No running processes found                                                             |
+-----------------------------------------------------------------------------------------+
[Warning] Fused window process have not been installed. Please refer to get_started.md for installation.
===============================================================================================
Layer (type:depth-idx)                        Output Shape              Param #
===============================================================================================
├─Conv2d: 1-1                                 [-1, 31, 128, 128]        1,674
├─ModuleList: 1                               []                        --
|    └─ModuleList: 2                          []                        --
|    |    └─DTNBlock: 3-1                     [-1, 31, 128, 128]        129,752
|    |    └─DownSample: 3-2                   [-1, 62, 64, 64]          30,876
|    └─ModuleList: 2                          []                        --
|    |    └─DTNBlock: 3-3                     [-1, 62, 64, 64]          472,112
|    |    └─DownSample: 3-4                   [-1, 124, 32, 32]         123,256
|    └─ModuleList: 2                          []                        --
|    |    └─DTNBlock: 3-5                     [-1, 124, 32, 32]         1,813,040
|    |    └─DownSample: 3-6                   [-1, 248, 16, 16]         492,528
|    └─ModuleList: 2                          []                        --
|    |    └─DTNBlock: 3-7                     [-1, 248, 16, 16]         7,119,728
|    |    └─DownSample: 3-8                   [-1, 496, 8, 8]           1,969,120
├─DTNBlock: 1-2                               [-1, 496, 8, 8]           --
|    └─Sequential: 2-1                        [-1, 496, 8, 8]           --
|    |    └─Adaptive_MSAB: 3-9                [-1, 496, 8, 8]           7,069,211
|    |    └─Adaptive_SWTB: 3-10               [-1, 496, 8, 8]           7,044,027
|    |    └─Adaptive_MSAB: 3-11               [-1, 496, 8, 8]           7,069,211
|    |    └─Adaptive_SWTB: 3-12               [-1, 496, 8, 8]           7,044,027
|    |    └─Adaptive_MSAB: 3-13               [-1, 496, 8, 8]           7,069,211
|    |    └─Adaptive_SWTB: 3-14               [-1, 496, 8, 8]           7,044,027
|    |    └─Adaptive_MSAB: 3-15               [-1, 496, 8, 8]           7,069,211
|    |    └─Adaptive_SWTB: 3-16               [-1, 496, 8, 8]           7,044,027
├─ModuleList: 1                               []                        --
|    └─ModuleList: 2                          []                        --
|    |    └─UpSample: 3-17                    [-1, 248, 16, 16]         2,091,136
|    |    └─Conv2d: 3-18                      [-1, 248, 16, 16]         123,008
|    |    └─DTNBlock: 3-19                    [-1, 248, 16, 16]         7,119,728
|    └─ModuleList: 2                          []                        --
|    |    └─UpSample: 3-20                    [-1, 124, 32, 32]         522,784
|    |    └─Conv2d: 3-21                      [-1, 124, 32, 32]         30,752
|    |    └─DTNBlock: 3-22                    [-1, 124, 32, 32]         1,813,040
|    └─ModuleList: 2                          []                        --
|    |    └─UpSample: 3-23                    [-1, 62, 64, 64]          130,696
|    |    └─Conv2d: 3-24                      [-1, 62, 64, 64]          7,688
|    |    └─DTNBlock: 3-25                    [-1, 62, 64, 64]          472,112
|    └─ModuleList: 2                          []                        --
|    |    └─UpSample: 3-26                    [-1, 31, 128, 128]        32,674
|    |    └─Conv2d: 3-27                      [-1, 31, 128, 128]        1,922
|    |    └─DTNBlock: 3-28                    [-1, 31, 128, 128]        129,752
├─Conv2d: 1-3                                 [-1, 31, 128, 128]        8,649
===============================================================================================
Total params: 81,088,979
Trainable params: 81,088,979
Non-trainable params: 0
Total mult-adds (M): 569.23
===============================================================================================
Input size (MB): 0.38
Forward/backward pass size (MB): 20.83
Params size (MB): 309.33
Estimated Total Size (MB): 330.53
===============================================================================================
==========================================================================================
Layer (type:depth-idx)                   Output Shape              Param #
==========================================================================================
├─DenseNet: 1-1                          [-1, 1]                   --
|    └─Sequential: 2-1                   [-1, 2208, 4, 4]          --
|    |    └─SNConv2d: 3-1                [-1, 96, 64, 64]          174,048
|    |    └─LeakyReLU: 3-2               [-1, 96, 64, 64]          --
|    |    └─MaxPool2d: 3-3               [-1, 96, 32, 32]          --
|    |    └─_DenseBlock: 3-4             [-1, 384, 32, 32]         746,496
|    |    └─_Transition: 3-5             [-1, 192, 16, 16]         73,728
|    |    └─_DenseBlock: 3-6             [-1, 768, 16, 16]         2,045,952
|    |    └─_Transition: 3-7             [-1, 384, 8, 8]           294,912
|    |    └─_DenseBlock: 3-8             [-1, 2112, 8, 8]          11,446,272
|    |    └─_Transition: 3-9             [-1, 1056, 4, 4]          2,230,272
|    |    └─_DenseBlock: 3-10            [-1, 2208, 4, 4]          9,400,320
|    └─LeakyReLU: 2-2                    [-1, 2208, 4, 4]          --
|    └─Sequential: 2-3                   [-1, 1]                   --
|    |    └─SNConv2d: 3-11               [-1, 1, 1, 1]             35,329
|    |    └─AdaptiveAvgPool2d: 3-12      [-1, 1, 1, 1]             --
|    |    └─Flatten: 3-13                [-1, 1]                   --
==========================================================================================
Total params: 26,447,329
Trainable params: 26,447,329
Non-trainable params: 0
Total mult-adds (M): 105.82
==========================================================================================
Input size (MB): 2.31
Forward/backward pass size (MB): 3.00
Params size (MB): 100.89
Estimated Total Size (MB): 106.20
…
